…
[INFO] Register count_convNd() for <class 'torch.nn.modules.conv.Conv2d'>.
[INFO] Register count_linear() for <class 'torch.nn.modules.linear.Linear'>.
[INFO] Register count_softmax() for <class 'torch.nn.modules.activation.Softmax'>.
Total FLOPs: 462600.0, Total Params: 444814.0
csv_data: [23, 40, 0.29405029912789665, 0.31385030195117, 2.0, 2.0, 90.28, 1, 3, 444814.0, 462600.0]
Pruning completed successfully.
----------------------------------------------------------------
        Layer (type)               Output Shape         Param #
================================================================
            Conv2d-1            [-1, 1, 24, 24]              26
            Conv2d-2              [-1, 2, 8, 8]              52
            Linear-3                  [-1, 800]          26,400
            Linear-4                  [-1, 500]         400,500
            Linear-5                   [-1, 10]           5,010
================================================================
Total params: 431,988
Trainable params: 431,988
Non-trainable params: 0
----------------------------------------------------------------
Input size (MB): 0.00
Forward/backward pass size (MB): 0.02
Params size (MB): 1.65
Estimated Total Size (MB): 1.67
----------------------------------------------------------------
