…
csv_data: [40, 1, 2.217914399623871, 2.3177927107810974, 3.2981772422790527, 10.020794868469238, 10.61, 24, 24, 36, 36, 41, 41, 41, 12, 12, 12, 12, 12, 12]
Epoch [1/1], Train Accuracy: 9.96%
Finetuning Iteration 41, Epoch [1/1], Old Loss: 2.32888620, New Loss: 2.32888620
Finetuning term: 1.1953396494845947e-08
Epoch [1/1], Test Accuracy: 9.98%
Pruning completed successfully.
----------------------------------------------------------------
        Layer (type)               Output Shape         Param #
================================================================
            Conv2d-1           [-1, 23, 32, 32]             644
       BatchNorm2d-2           [-1, 23, 32, 32]              46
              ReLU-3           [-1, 23, 32, 32]               0
              ReLU-4           [-1, 23, 32, 32]               0
              ReLU-5           [-1, 23, 32, 32]               0
              ReLU-6           [-1, 23, 32, 32]               0
              ReLU-7           [-1, 23, 32, 32]               0
              ReLU-8           [-1, 23, 32, 32]               0
              ReLU-9           [-1, 23, 32, 32]               0
             ReLU-10           [-1, 23, 32, 32]               0
             ReLU-11           [-1, 23, 32, 32]               0
             ReLU-12           [-1, 23, 32, 32]               0
             ReLU-13           [-1, 23, 32, 32]               0
             ReLU-14           [-1, 23, 32, 32]               0
             ReLU-15           [-1, 23, 32, 32]               0
             ReLU-16           [-1, 23, 32, 32]               0
             ReLU-17           [-1, 23, 32, 32]               0
           Conv2d-18           [-1, 23, 32, 32]           4,784
      BatchNorm2d-19           [-1, 23, 32, 32]              46
             ReLU-20           [-1, 23, 32, 32]               0
             ReLU-21           [-1, 23, 32, 32]               0
             ReLU-22           [-1, 23, 32, 32]               0
             ReLU-23           [-1, 23, 32, 32]               0
             ReLU-24           [-1, 23, 32, 32]               0
             ReLU-25           [-1, 23, 32, 32]               0
             ReLU-26           [-1, 23, 32, 32]               0
             ReLU-27           [-1, 23, 32, 32]               0
             ReLU-28           [-1, 23, 32, 32]               0
             ReLU-29           [-1, 23, 32, 32]               0
             ReLU-30           [-1, 23, 32, 32]               0
             ReLU-31           [-1, 23, 32, 32]               0
             ReLU-32           [-1, 23, 32, 32]               0
             ReLU-33           [-1, 23, 32, 32]               0
             ReLU-34           [-1, 23, 32, 32]               0
        MaxPool2d-35           [-1, 23, 16, 16]               0
           Conv2d-36           [-1, 35, 16, 16]           7,280
      BatchNorm2d-37           [-1, 35, 16, 16]              70
             ReLU-38           [-1, 35, 16, 16]               0
             ReLU-39           [-1, 35, 16, 16]               0
             ReLU-40           [-1, 35, 16, 16]               0
             ReLU-41           [-1, 35, 16, 16]               0
             ReLU-42           [-1, 35, 16, 16]               0
             ReLU-43           [-1, 35, 16, 16]               0
             ReLU-44           [-1, 35, 16, 16]               0
             ReLU-45           [-1, 35, 16, 16]               0
             ReLU-46           [-1, 35, 16, 16]               0
             ReLU-47           [-1, 35, 16, 16]               0
             ReLU-48           [-1, 35, 16, 16]               0
             ReLU-49           [-1, 35, 16, 16]               0
             ReLU-50           [-1, 35, 16, 16]               0
             ReLU-51           [-1, 35, 16, 16]               0
             ReLU-52           [-1, 35, 16, 16]               0
           Conv2d-53           [-1, 35, 16, 16]          11,060
      BatchNorm2d-54           [-1, 35, 16, 16]              70
             ReLU-55           [-1, 35, 16, 16]               0
             ReLU-56           [-1, 35, 16, 16]               0
             ReLU-57           [-1, 35, 16, 16]               0
             ReLU-58           [-1, 35, 16, 16]               0
             ReLU-59           [-1, 35, 16, 16]               0
             ReLU-60           [-1, 35, 16, 16]               0
             ReLU-61           [-1, 35, 16, 16]               0
             ReLU-62           [-1, 35, 16, 16]               0
             ReLU-63           [-1, 35, 16, 16]               0
             ReLU-64           [-1, 35, 16, 16]               0
             ReLU-65           [-1, 35, 16, 16]               0
             ReLU-66           [-1, 35, 16, 16]               0
             ReLU-67           [-1, 35, 16, 16]               0
             ReLU-68           [-1, 35, 16, 16]               0
             ReLU-69           [-1, 35, 16, 16]               0
        MaxPool2d-70             [-1, 35, 8, 8]               0
           Conv2d-71             [-1, 39, 8, 8]          12,324
      BatchNorm2d-72             [-1, 39, 8, 8]              78
             ReLU-73             [-1, 39, 8, 8]               0
             ReLU-74             [-1, 39, 8, 8]               0
             ReLU-75             [-1, 39, 8, 8]               0
             ReLU-76             [-1, 39, 8, 8]               0
             ReLU-77             [-1, 39, 8, 8]               0
             ReLU-78             [-1, 39, 8, 8]               0
             ReLU-79             [-1, 39, 8, 8]               0
             ReLU-80             [-1, 39, 8, 8]               0
             ReLU-81             [-1, 39, 8, 8]               0
             ReLU-82             [-1, 39, 8, 8]               0
             ReLU-83             [-1, 39, 8, 8]               0
             ReLU-84             [-1, 39, 8, 8]               0
             ReLU-85             [-1, 39, 8, 8]               0
             ReLU-86             [-1, 39, 8, 8]               0
             ReLU-87             [-1, 39, 8, 8]               0
           Conv2d-88             [-1, 39, 8, 8]          13,728
      BatchNorm2d-89             [-1, 39, 8, 8]              78
             ReLU-90             [-1, 39, 8, 8]               0
             ReLU-91             [-1, 39, 8, 8]               0
             ReLU-92             [-1, 39, 8, 8]               0
             ReLU-93             [-1, 39, 8, 8]               0
             ReLU-94             [-1, 39, 8, 8]               0
             ReLU-95             [-1, 39, 8, 8]               0
             ReLU-96             [-1, 39, 8, 8]               0
             ReLU-97             [-1, 39, 8, 8]               0
             ReLU-98             [-1, 39, 8, 8]               0
             ReLU-99             [-1, 39, 8, 8]               0
            ReLU-100             [-1, 39, 8, 8]               0
            ReLU-101             [-1, 39, 8, 8]               0
            ReLU-102             [-1, 39, 8, 8]               0
            ReLU-103             [-1, 39, 8, 8]               0
            ReLU-104             [-1, 39, 8, 8]               0
          Conv2d-105             [-1, 39, 8, 8]          13,728
     BatchNorm2d-106             [-1, 39, 8, 8]              78
            ReLU-107             [-1, 39, 8, 8]               0
            ReLU-108             [-1, 39, 8, 8]               0
            ReLU-109             [-1, 39, 8, 8]               0
            ReLU-110             [-1, 39, 8, 8]               0
            ReLU-111             [-1, 39, 8, 8]               0
            ReLU-112             [-1, 39, 8, 8]               0
            ReLU-113             [-1, 39, 8, 8]               0
            ReLU-114             [-1, 39, 8, 8]               0
            ReLU-115             [-1, 39, 8, 8]               0
            ReLU-116             [-1, 39, 8, 8]               0
            ReLU-117             [-1, 39, 8, 8]               0
            ReLU-118             [-1, 39, 8, 8]               0
            ReLU-119             [-1, 39, 8, 8]               0
            ReLU-120             [-1, 39, 8, 8]               0
            ReLU-121             [-1, 39, 8, 8]               0
       MaxPool2d-122             [-1, 39, 4, 4]               0
          Conv2d-123             [-1, 11, 4, 4]           3,872
     BatchNorm2d-124             [-1, 11, 4, 4]              22
            ReLU-125             [-1, 11, 4, 4]               0
            ReLU-126             [-1, 11, 4, 4]               0
            ReLU-127             [-1, 11, 4, 4]               0
            ReLU-128             [-1, 11, 4, 4]               0
            ReLU-129             [-1, 11, 4, 4]               0
            ReLU-130             [-1, 11, 4, 4]               0
            ReLU-131             [-1, 11, 4, 4]               0
            ReLU-132             [-1, 11, 4, 4]               0
            ReLU-133             [-1, 11, 4, 4]               0
            ReLU-134             [-1, 11, 4, 4]               0
            ReLU-135             [-1, 11, 4, 4]               0
            ReLU-136             [-1, 11, 4, 4]               0
            ReLU-137             [-1, 11, 4, 4]               0
            ReLU-138             [-1, 11, 4, 4]               0
            ReLU-139             [-1, 11, 4, 4]               0
          Conv2d-140             [-1, 11, 4, 4]           1,100
     BatchNorm2d-141             [-1, 11, 4, 4]              22
            ReLU-142             [-1, 11, 4, 4]               0
            ReLU-143             [-1, 11, 4, 4]               0
            ReLU-144             [-1, 11, 4, 4]               0
            ReLU-145             [-1, 11, 4, 4]               0
            ReLU-146             [-1, 11, 4, 4]               0
            ReLU-147             [-1, 11, 4, 4]               0
            ReLU-148             [-1, 11, 4, 4]               0
            ReLU-149             [-1, 11, 4, 4]               0
            ReLU-150             [-1, 11, 4, 4]               0
            ReLU-151             [-1, 11, 4, 4]               0
            ReLU-152             [-1, 11, 4, 4]               0
            ReLU-153             [-1, 11, 4, 4]               0
            ReLU-154             [-1, 11, 4, 4]               0
            ReLU-155             [-1, 11, 4, 4]               0
            ReLU-156             [-1, 11, 4, 4]               0
          Conv2d-157             [-1, 11, 4, 4]           1,100
     BatchNorm2d-158             [-1, 11, 4, 4]              22
            ReLU-159             [-1, 11, 4, 4]               0
            ReLU-160             [-1, 11, 4, 4]               0
            ReLU-161             [-1, 11, 4, 4]               0
            ReLU-162             [-1, 11, 4, 4]               0
            ReLU-163             [-1, 11, 4, 4]               0
            ReLU-164             [-1, 11, 4, 4]               0
            ReLU-165             [-1, 11, 4, 4]               0
            ReLU-166             [-1, 11, 4, 4]               0
            ReLU-167             [-1, 11, 4, 4]               0
            ReLU-168             [-1, 11, 4, 4]               0
            ReLU-169             [-1, 11, 4, 4]               0
            ReLU-170             [-1, 11, 4, 4]               0
            ReLU-171             [-1, 11, 4, 4]               0
            ReLU-172             [-1, 11, 4, 4]               0
            ReLU-173             [-1, 11, 4, 4]               0
       MaxPool2d-174             [-1, 11, 2, 2]               0
          Conv2d-175             [-1, 11, 2, 2]           1,100
     BatchNorm2d-176             [-1, 11, 2, 2]              22
            ReLU-177             [-1, 11, 2, 2]               0
            ReLU-178             [-1, 11, 2, 2]               0
            ReLU-179             [-1, 11, 2, 2]               0
            ReLU-180             [-1, 11, 2, 2]               0
            ReLU-181             [-1, 11, 2, 2]               0
            ReLU-182             [-1, 11, 2, 2]               0
            ReLU-183             [-1, 11, 2, 2]               0
            ReLU-184             [-1, 11, 2, 2]               0
            ReLU-185             [-1, 11, 2, 2]               0
            ReLU-186             [-1, 11, 2, 2]               0
            ReLU-187             [-1, 11, 2, 2]               0
            ReLU-188             [-1, 11, 2, 2]               0
            ReLU-189             [-1, 11, 2, 2]               0
            ReLU-190             [-1, 11, 2, 2]               0
            ReLU-191             [-1, 11, 2, 2]               0
          Conv2d-192             [-1, 11, 2, 2]           1,100
     BatchNorm2d-193             [-1, 11, 2, 2]              22
            ReLU-194             [-1, 11, 2, 2]               0
            ReLU-195             [-1, 11, 2, 2]               0
            ReLU-196             [-1, 11, 2, 2]               0
            ReLU-197             [-1, 11, 2, 2]               0
            ReLU-198             [-1, 11, 2, 2]               0
            ReLU-199             [-1, 11, 2, 2]               0
            ReLU-200             [-1, 11, 2, 2]               0
            ReLU-201             [-1, 11, 2, 2]               0
            ReLU-202             [-1, 11, 2, 2]               0
            ReLU-203             [-1, 11, 2, 2]               0
            ReLU-204             [-1, 11, 2, 2]               0
            ReLU-205             [-1, 11, 2, 2]               0
            ReLU-206             [-1, 11, 2, 2]               0
            ReLU-207             [-1, 11, 2, 2]               0
            ReLU-208             [-1, 11, 2, 2]               0
          Conv2d-209             [-1, 11, 2, 2]           1,100
     BatchNorm2d-210             [-1, 11, 2, 2]              22
            ReLU-211             [-1, 11, 2, 2]               0
            ReLU-212             [-1, 11, 2, 2]               0
            ReLU-213             [-1, 11, 2, 2]               0
            ReLU-214             [-1, 11, 2, 2]               0
            ReLU-215             [-1, 11, 2, 2]               0
            ReLU-216             [-1, 11, 2, 2]               0
            ReLU-217             [-1, 11, 2, 2]               0
            ReLU-218             [-1, 11, 2, 2]               0
            ReLU-219             [-1, 11, 2, 2]               0
            ReLU-220             [-1, 11, 2, 2]               0
            ReLU-221             [-1, 11, 2, 2]               0
            ReLU-222             [-1, 11, 2, 2]               0
            ReLU-223             [-1, 11, 2, 2]               0
            ReLU-224             [-1, 11, 2, 2]               0
            ReLU-225             [-1, 11, 2, 2]               0
          Linear-226                  [-1, 512]           6,144
     BatchNorm1d-227                  [-1, 512]           1,024
            ReLU-228                  [-1, 512]               0
            ReLU-229                  [-1, 512]               0
            ReLU-230                  [-1, 512]               0
            ReLU-231                  [-1, 512]               0
            ReLU-232                  [-1, 512]               0
            ReLU-233                  [-1, 512]               0
            ReLU-234                  [-1, 512]               0
            ReLU-235                  [-1, 512]               0
            ReLU-236                  [-1, 512]               0
            ReLU-237                  [-1, 512]               0
            ReLU-238                  [-1, 512]               0
            ReLU-239                  [-1, 512]               0
            ReLU-240                  [-1, 512]               0
            ReLU-241                  [-1, 512]               0
            ReLU-242                  [-1, 512]               0
          Linear-243                   [-1, 10]           5,130
================================================================
Total params: 85,816
Trainable params: 85,816
Non-trainable params: 0
----------------------------------------------------------------
Input size (MB): 0.01
Forward/backward pass size (MB): 9.62
Params size (MB): 0.33
Estimated Total Size (MB): 9.96
----------------------------------------------------------------
